app/src/main/assets/patechModel.tflite (tflite, 19892 bytes, 5 tensors)

sequential_6/dense_18/BiasAdd/ReadVariableOp/resource f4 [64]
000000 84 47 9d 3d 16 b3 4a 3d f5 a1 87 3d 00 00 00 00
       0.07679656 0.049487196 0.06622688 0.0
000010 0c 78 23 bd fb 19 7e 3d 4e aa 03 be 3f 71 cf 3c
       -0.039909407 0.062036496 -0.12857935 0.025322555
000020 41 9c 10 3d 84 33 fc 3d 27 59 81 bd 37 ba 1e b8
       0.035305265 0.12314513 -0.063158326 -3.784356e-05
000030 21 fa d1 3c 00 00 00 00 00 00 00 00 97 bb 3e bb
       0.025631966 0.0 0.0 -0.0029103511
000040 26 c5 80 ba 67 14 0c be 0c 4a a1 be ff 7f 2f bc
       -0.000982438 -0.13679658 -0.31501806 -0.010711669
000050 1c 61 ac 3d 05 e9 82 be a5 22 73 3c f4 4e 6c bd
       0.0841696 -0.25568405 0.014839803 -0.057692483
000060 d1 0c 2b bd 64 1c 03 3e 00 00 00 00 00 00 00 00
       -0.04176027 0.12803799 0.0 0.0
000070 60 c5 76 bd 5c f1 ad bc 29 f6 fa 3d cf 24 45 3d
       -0.060246825 -0.021233253 0.122539826 0.048130807
000080 5a 4b 98 bd 7b b5 8f b9 7b 08 ef 3d 00 00 00 00
       -0.07436247 -0.000274103 0.116715394 0.0
000090 b0 7b 0c 3d 00 00 00 00 49 88 de bd 00 00 00 00
       0.034297645 0.0 -0.10865838 0.0
0000a0 00 00 00 00 f0 4e 37 be c8 cc 2c 3e 3d 0b 82 bd
       0.0 -0.17901206 0.16874993 -0.063498
0000b0 a9 5b 2b be 6f 7c 0f bc 72 d0 aa 3d d0 30 26 3d
       -0.16734184 -0.008757695 0.08340539 0.040573895
0000c0 5b 1a 07 3d 91 7a cf 3b 00 00 00 00 7e 1f f4 bd
       0.03298412 0.0063317497 0.0 -0.11920069
0000d0 00 00 00 00 00 00 00 00 89 fc 80 3d 72 d8 cb 3a
       0.0 0.0 0.06298167 0.0015552177
0000e0 87 80 17 3c 8a 19 1c 3d 66 32 d8 3d 00 00 00 00
       0.009246952 0.038110293 0.10556488 0.0
0000f0 46 d4 2f 3c 00 00 00 00 71 ab 0d 3c c1 36 68 bc
       0.010731762 0.0 0.008646832 -0.014173211

sequential_6/dense_18/MatMul f4 [64, 2]
000000 e2 2a 3f be f0 bd e6 3d 28 05 d2 be dc 6c 5d 3e
       -0.18668702 0.112666965 -0.4101956 0.21623558
000010 81 ee 48 be 47 90 38 3e 86 16 fb bd b2 e9 7b be
       -0.19622232 0.18023787 -0.122601554 -0.24600866
000020 4a 52 12 3d d0 80 3e 3d fa 94 32 3e 71 94 30 be
       0.03572301 0.046509564 0.17439643 -0.17244126
000030 f5 56 35 3d 31 8a 86 3d 67 9f 4f be 76 37 45 3e
       0.04427238 0.06569327 -0.20275651 0.19259438
000040 7b 05 a9 be ab 7b 32 3e 8f ed d5 be c0 ba 5d 3e
       -0.33011994 0.17429988 -0.41782805 0.2165327
000050 17 40 28 3e be c0 85 be ec 2b 3e be f2 da 7c 3a
       0.16430698 -0.26123613 -0.18571442 0.00096456625
000060 b4 5a a4 3d d0 cb 88 be 8c bd 7c be a4 cf 77 bd
       0.08025113 -0.26717997 -0.24681681 -0.060500756
000070 22 fc c5 bd 7c 8d 8d bd 46 14 c7 bc f9 2a a7 b9
       -0.09667231 -0.06911752 -0.02430166 -0.0003188474
000080 e9 0a 83 be 55 03 ae 3a 92 fe 92 3d cd dc a1 3d
       -0.2559426 0.001327614 0.07177462 0.079034425
000090 dd ad 72 3d 8d 13 bb 3d b8 86 64 bc 89 72 49 3a
       0.05924784 0.091345884 -0.013948135 0.00076846086
0000a0 09 cd b4 3d 13 3a 82 bd 79 86 5e 3d e6 3b 81 3d
       0.0882817 -0.06358733 0.054327462 0.06310253
0000b0 ca 66 4e bd b7 92 1a 3e 78 dc c5 3d 8b 4a 23 be
       -0.050390996 0.1509503 0.09661192 -0.15946405
0000c0 e0 a5 47 bc ef f6 94 3d 98 20 fd bd 38 c4 7f 3e
       -0.012185544 0.07273661 -0.123597324 0.24977195
0000d0 74 03 72 bd 64 02 97 bd 2c bf 83 be ca 6b 5b be
       -0.059085324 -0.07373503 -0.2573179 -0.21427837
0000e0 0a b4 07 3d 64 22 c4 3d 3c b4 ad 3c fe c3 c8 bc
       0.033130683 0.09576872 0.021204107 -0.024507519
0000f0 69 1b cd 39 90 48 25 3c 47 fa 38 be 97 26 ea 3d
       0.0003912107 0.010088101 -0.18064223 0.11433142
000100 87 f1 0b 3d a0 58 94 3c 49 25 a2 3c ad 0d 60 be
       0.034165885 0.018108666 0.01979317 -0.21880217
000110 0e e2 2a 3d 4d 96 bb 39 bd 0b 97 be 98 a9 9d bd
       0.04171949 0.00035779402 -0.29501143 -0.07698363
000120 d0 74 19 be 9c 9e 9d 3d c5 53 7a be fd 2f 4d be
       -0.14985967 0.07696268 -0.24446018 -0.20037837
000130 06 da 05 3d 60 50 c5 3d b0 ac e3 bc 63 d2 97 be
       0.032678626 0.09634471 -0.027792305 -0.296527
000140 eb ad 19 be c0 12 1e bc 17 f2 2c 3d b8 a2 22 3d
       -0.1500775 -0.009648025 0.042223062 0.039705962
000150 17 b5 45 bc 09 cb e3 3c f5 23 34 3d 91 5d 8c bd
       -0.012067101 0.027806776 0.043979604 -0.06853784
000160 92 50 b2 3d f8 db 09 bc 6e 27 27 3d 5a 36 2a bd
       0.08706774 -0.008414261 0.040809087 -0.04155574
000170 5d c2 af bd c8 a7 a5 3e 41 5c af 3d 45 44 40 be
       -0.08581994 0.3235457 0.08562518 -0.18776043
000180 31 f7 b0 3d be d2 4d be b8 de 68 3d a2 b9 96 be
       0.08640898 -0.20099923 0.056853026 -0.29438502
000190 34 e7 5c be e8 f3 0c bd 77 f5 db bd 87 94 15 3e
       -0.21572572 -0.034412295 -0.10740178 0.1460744
0001a0 1c 65 84 be bc 31 38 be 84 dc 2b be ee 8d e9 bd
       -0.2585839 -0.17987722 -0.16783339 -0.11404024
0001b0 66 b7 8a bd 60 2e 78 3e 80 7a 8a be cd 0b d6 3d
       -0.06773262 0.2423644 -0.27046585 0.104514696
0001c0 c0 94 87 3c 2f d1 b4 bd 31 06 ce 3d 85 4b 8f be
       0.016550422 -0.08828961 0.10059775 -0.27987304
0001d0 15 f8 5c be 5a a4 3e 3e 88 6f e1 bd a2 24 8f bd
       -0.21579011 0.18617383 -0.11007601 -0.06989409
0001e0 e7 99 e5 bd 2b 77 6f 3d 40 c6 87 bc f6 6f 83 be
       -0.11210995 0.058463257 -0.016574025 -0.25671357
0001f0 4a b8 d5 3c 64 0e d4 bb 44 27 e9 bc 63 07 d1 3d
       0.026088852 -0.006471442 -0.028461106 0.10206487

sequential_6/dense_19/MatMul f4 [64, 64]
000000 b5 a2 06 bd 53 33 18 3e 25 11 ea bd e3 78 37 be
       -0.032870013 0.14863329 -0.11429051 -0.17917208
000010 4f a5 01 be d7 ed 64 3d 73 00 48 be d8 da 95 3d
       -0.12660716 0.055890884 -0.19531421 0.07317132
000020 ce b7 62 3e 67 19 2b 3e 3e ee 44 be 87 42 3b 3c
       0.22140428 0.16708909 -0.19231507 0.011429436
000030 1c 05 76 3c 06 67 84 3d ee 65 e9 3d 91 ea d2 3b
       0.015015867 0.06464963 0.11396395 0.006436654
000040 c2 7d 4b be b2 3b 0b 3d bb aa db 3d 36 63 2e be
       -0.19872192 0.033992477 0.10725924 -0.17030033
000050 7f 3e 2d 3e 56 70 2e be f5 da 16 be 2b 51 92 bb
       0.16918372 -0.1703504 -0.14731963 -0.0044652424
000060 b5 68 5d 3e e0 bc 18 3e 18 e8 2b be 18 c3 7f bd
       0.21621974 0.149158 -0.16787755 -0.062441915
000070 5c 7c 1b be a9 8e 3e 3d 60 c4 d8 3d 70 1e 5f 3d
       -0.15184158 0.04652277 0.105843306 0.054472387
000080 ab 03 1b 3c ec ef 02 3e 50 f7 b2 bd 1d 15 2c 3e
       0.009461324 0.12786835 -0.08738577 0.16804929
000090 eb ce 43 3d 14 87 2f 3d a2 bb 20 3c be 9f d2 3d
       0.047804754 0.04285343 0.00981036 0.10284375
0000a0 d9 2e 5c 3e 44 bb 87 bd e5 17 4f 3d 6a 4d 09 be
       0.21502246 -0.06627515 0.050559897 -0.13408437
0000b0 a6 e1 0b be 76 48 06 3e e1 b7 e6 bd f9 97 94 3d
       -0.13660297 0.13113579 -0.11265541 0.07255549
0000c0 4c b9 c3 3d ce 7f 24 be d0 24 3f bc 01 89 de bc
       0.09556827 -0.16064379 -0.011666492 -0.027164938
0000d0 9f e9 e6 bd 6d 32 2f 3e 85 a0 09 bd 66 f0 5a 3e
       -0.112750284 0.1710908 -0.03360035 0.21380767
0000e0 ec 08 8b 3d 25 d8 37 be cd 96 fc bc 4a a2 1c be
       0.06788811 -0.17953546 -0.030833626 -0.15296283
0000f0 b5 6f 29 be fd e9 1e 3e 6b 24 b4 bc 26 c2 2b be
       -0.16546519 0.15518947 -0.021990022 -0.1677328
000100 8a ae 24 be 4c 29 6a 3e 64 57 4f 3e 46 56 03 be
       -0.16082206 0.22867316 0.2024818 -0.1282588
000110 39 69 0f 3d f7 8b 9f 3d b6 38 56 3e ff e7 04 3e
       0.035012458 0.07790368 0.20920071 0.12979124
000120 3e 25 36 be 20 db a7 ba 6f 7a 4f be e8 38 52 be
       -0.17787644 -0.0012806393 -0.20261548 -0.2052952
000130 cb a9 28 3d a8 e8 b1 bd 86 57 45 be e2 ff e0 3d
       0.041177552 -0.08686954 -0.19271669 0.10986306
000140 7d 70 24 be 14 14 d7 bd a9 58 ae bd e2 e6 1c bd
       -0.16058536 -0.105018765 -0.08513004 -0.038306125
000150 c2 7b 7b bd 3b 5d 73 bd 4c 9f 8e 3d 12 81 2f be
       -0.06139732 -0.059415083 0.06963977 -0.1713908
000160 11 9b 0f 3e a0 f0 ad 3d 01 93 59 3e 00 68 4a bc
       0.14023997 0.08493161 0.21247484 -0.012353897
000170 ef 3a 10 3d 72 bf 42 be 43 c1 66 bc 20 fd 10 3d
       0.035212453 -0.19018343 -0.014084163 0.03539765
000180 9b 12 3e 3d 63 26 f9 bc 5e d8 28 bc ec 5e 3e 3d
       0.046404462 -0.030413812 -0.010305492 0.046477243
000190 fa b5 9d 3c 04 12 3b bd 13 cb a9 3d 98 ed f2 3c
       0.019251812 -0.045671478 0.082906865 0.02965431
0001a0 ba 43 52 be 65 00 3a be 1a ed 43 ba 81 e9 7d 3d
       -0.20533648 -0.18164213 -0.00074739906 0.061990265
0001b0 b5 37 8f ba 1a 81 c4 bd 67 97 d7 bc 45 26 c1 bd
       -0.0010926636 -0.09594937 -0.026317311 -0.094311275
0001c0 1f 65 32 3e 50 0a fd bd 88 59 8b bc 09 b5 2a be
       0.17421387 -0.123554826 -0.017010465 -0.16670622
0001d0 a6 83 c9 3d df c6 30 3e a2 2e 78 bd 4d 21 c4 bc
       0.09839563 0.17263363 -0.060591348 -0.02394166
0001e0 04 fa 09 3d 40 c7 f5 bc 80 28 17 3e 1c 8b da bd
       0.0336857 -0.030002236 0.14761543 -0.10671064
0001f0 99 b1 f8 bc 76 14 ca 3d da b4 a7 3a c0 b9 3e 3e
       -0.030358123 0.09867184 0.0012794987 0.18625546
000200 dd 97 13 be 4c 5f ed 3d ba 06 18 3e 80 27 9e 3b
       -0.144134 0.11590442 0.14846316 0.004826486
000210 e7 3d 02 bd 41 6c 81 3c 0f a3 e8 bd da dc bb bc
       -0.031797316 0.01579869 -0.11359226 -0.022932459
000220 06 24 47 bc 10 27 22 be 50 75 23 3c 34 b4 a6 bd
       -0.012154585 -0.15835214 0.0099767 -0.0813984
000230 74 4a e1 bd 32 a9 eb bd 00 79 09 bd 6b 54 08 bd
       -0.11000529 -0.11506881 -0.03356266 -0.033283632
000240 a1 dd 1a 3e 21 a0 f2 bc 0b b2 74 3d ea f7 1b 3e
       0.15123607 -0.029617371 0.059740108 0.1523129
000250 10 21 4e 3e 19 d4 34 be dc a9 3d bc 56 fd bf bd
       0.201298 -0.17659034 -0.011576142 -0.09374492
000260 94 57 dd bd 0b dd d1 bd 06 ac c5 3d 2a 70 db 3d
       -0.1080772 -0.10247239 0.096519515 0.10714753
000270 05 71 1e 3e b8 44 4c be f2 d7 12 bd 44 b2 1b bd
       0.15472801 -0.19948089 -0.035850473 -0.038011804
000280 42 56 1e 3d e0 06 ce bc 45 16 2f 3e 00 8e 0f bd
       0.03865648 -0.025149763 0.17098339 -0.03504753
000290 af b9 98 bd 25 83 0b be 43 57 bf bd be 48 a6 3d
       -0.07457291 -0.13624246 -0.09342816 0.08119343
0002a0 d4 8b b7 bd c4 cf d0 3d b0 91 44 3b c9 88 22 be
       -0.08962217 0.10195878 0.0029994063 -0.15872492
0002b0 2e 88 f8 3d d5 d8 0a 3d c6 5f 4f bd 5a fb fa bd
       0.12135349 0.033898193 -0.050628446 -0.12254973
0002c0 a9 9b 50 3d d8 df eb bd 13 f4 1c be f6 d5 39 3d
       0.0509297 -0.11517304 -0.15327482 0.045370065
0002d0 e6 24 dc 3d 72 04 8f 3d f8 9c be 3d d6 d7 fe bd
       0.10749225 0.0698327 0.09307283 -0.12443511
0002e0 7b 6f 2d 3b 3e b5 08 be 31 4c a7 3b c7 16 50 be
       0.0026464153 -0.13350388 0.0051055183 -0.20321189
0002f0 54 f8 18 be e1 ee 50 be f3 d4 22 3d d0 9b 31 be
       -0.1493848 -0.20403625 0.039753865 -0.17344594
000300 17 9d 7f bd 92 b2 d4 3d 59 43 49 3e b9 a5 f9 bd
       -0.062405672 0.10385622 0.19654597 -0.12189812
000310 a8 13 c7 3d a8 66 03 3e bc 54 d3 3d 09 5e 2e 3e
       0.09720546 0.12832129 0.10318896 0.17028059
000320 ad 17 7c 3e 9b 47 76 3e 8a 72 a4 bd 7a d5 88 3c
       0.24618407 0.24050753 -0.08029659 0.016703356
000330 8e d1 38 3c 54 8c 65 3d 19 6b 00 3e 09 8a 0e be
       0.0112804305 0.05604203 0.12540855 -0.13919844
000340 17 ab 26 be ea af 33 be fa 9a 62 bd f8 5b e1 3d
       -0.16276203 -0.17547575 -0.05532358 0.1100387
000350 54 7b e3 3d fa 52 21 be b3 da bd 3d 80 50 c0 bd
       0.11107507 -0.1575431 0.09270229 -0.09390354
000360 f0 8f 27 be da 0b 30 3e 88 dd de 3c 71 52 0a 3e
       -0.16363502 0.17192021 0.027205244 0.13508011
000370 7c fd 82 bd 94 01 1d bd e9 e9 3e be ac b8 2d bd
       -0.063960046 -0.038331583 -0.18643917 -0.042412445
000380 96 fd 2a be 02 91 f8 3c a7 8f 30 3e 04 50 11 3d
       -0.16698298 0.030342583 0.17242299 0.0354767
000390 41 08 1f 3e b6 27 56 be e3 a4 3c be 48 74 5c bd
       0.15530492 -0.20913586 -0.18422274 -0.053821832
0003a0 c0 c7 d1 bd 71 81 a2 bd 7b 57 70 3d de 69 05 3d
       -0.102431774 -0.07934845 0.058677178 0.032571666
0003b0 57 ad 43 3d 46 4b 62 bd 84 9d d6 3d 53 9d a1 3c
       0.04777273 -0.055247568 0.104792625 0.019728338
0003c0 f6 ce db bc c4 32 eb bd a6 b1 03 be 56 84 6b bd
       -0.026832085 -0.11484292 -0.12860736 -0.057499252
0003d0 4e f4 ed 3d a4 00 4d 3d d6 98 de bd 5d f3 5c bd
       0.11618863 0.05004944 -0.10868995 -0.053943027
0003e0 62 f1 00 be 96 0b e0 3d b3 74 ce 3c 96 4c b7 3d
       -0.1259208 0.1093971 0.02520213 0.089501545
0003f0 df 9a 4b be 9e ee c7 3d 3e fc cf bd e5 b0 53 be
       -0.19883297 0.097623095 -0.10155533 -0.20672949

sequential_6/dense_20/MatMul f4 [4, 64]
000000 3f f2 11 be 9b 96 61 be 7c dd 1a be e3 58 e0 3d
       -0.14252566 -0.22030108 -0.15123552 0.10954454
000010 fd 21 3d 3e 6c 69 63 be 25 cd 50 be 2e 8b 54 3c
       0.18469997 -0.22208184 -0.20390756 0.012972636
000020 48 11 e4 bd af d1 38 3d 90 17 87 3e 91 48 39 be
       -0.11136109 0.045121845 0.26385164 -0.18094088
000030 3b 19 32 3e 5a fc ac bd 94 89 8f 3d a8 22 30 3e
       0.17392437 -0.0844657 0.07008663 0.1720072
000040 00 e1 8a be 33 f6 23 bd 04 42 08 be 22 4b 5a 3d
       -0.27124786 -0.040029716 -0.13306433 0.05329431
000050 15 2d 68 3e 19 11 02 3d ac d9 db bd 68 37 5b be
       0.22673447 0.031754587 -0.10734877 -0.21407855
000060 51 6d a2 be 87 e0 56 bd e3 c8 84 be 85 df 5d be
       -0.31724027 -0.05246022 -0.25934514 -0.21667297
000070 08 5d fc bd 0f 42 3a bc 0b a7 94 bd cd 09 90 3e
       -0.12322432 -0.011368289 -0.072584234 0.28132477
000080 f4 41 f1 3c 4f a3 4b 3e e8 03 b2 3d 3b 32 84 bd
       0.029450394 0.19886516 0.08692151 -0.06454893
000090 f9 a2 62 bd 08 c0 46 bd c0 84 2c be 41 bd 40 be
       -0.055331204 -0.04852298 -0.16847515 -0.18822195
0000a0 83 99 83 bb bb f0 bc bb a3 63 8f 3e 82 b0 ea 3d
       -0.0040161028 -0.005766002 0.28005704 0.114594474
0000b0 8d e0 7b bd a2 5e 84 be 6e d9 ca bd ac 44 91 3d
       -0.061493445 -0.2585345 -0.09904753 0.07093176
0000c0 a0 b9 91 3e 4c f3 f8 bd 6e b8 a1 be 67 e5 47 3d
       0.28461933 -0.1215578 -0.3158602 0.04880276
0000d0 45 4d 6f be a3 cd 9a 3e b3 0c 3a be 84 a1 42 3d
       -0.2336932 0.30235013 -0.18168907 0.047517315
0000e0 07 3f 47 3e c2 94 10 3d 0f 53 5f be bf b5 48 3c
       0.19457637 0.035298117 -0.21809028 0.012250363
0000f0 bb 8d 09 3e bb 11 b5 3d d4 d5 4e be 29 55 ff bd
       0.13432972 0.088412724 -0.20198756 -0.12467415
000100 b7 df 8a be 16 5c 3e be 3d 2d 6c bd eb e7 34 be
       -0.27123806 -0.18589815 -0.05766033 -0.17666595
000110 85 2f 26 3d 67 4b c5 3c f6 47 82 3e b2 52 8a 3b
       0.040572662 0.024083806 0.25445527 0.004221284
000120 1b 0e 80 3e c5 8d d8 3d 9a 3a fa 3d 4a 83 24 3e
       0.25010762 0.105739154 0.122182086 0.16065708
000130 d2 bd b5 3d 09 11 83 3d 13 d5 88 bd 90 eb 57 3d
       0.08874096 0.063997336 -0.06681266 0.052714884
000140 a0 23 2f 3e a3 7d b0 bd f8 ca 43 be a6 a5 a1 3c
       0.17103434 -0.08617713 -0.19120395 0.019732308
000150 e2 d2 31 be 03 0f 66 3e 88 f0 51 3e 2b 57 7b 3d
       -0.17365602 0.22466664 0.20501912 0.061362427
000160 81 b1 b8 3d 38 6a 40 bd 6c 89 ee 3d 4f ee dd 3d
       0.09018231 -0.046976298 0.11647305 0.108364694
000170 60 0b 41 be 98 ce 3c 3d 45 93 78 be 2f 94 45 be
       -0.18851995 0.04609546 -0.24274929 -0.19294809
000180 ff 34 19 bd d2 5b 85 be 81 56 15 3c 5f 14 4c 3e
       -0.037404057 -0.26046616 0.009114862 0.19929646
000190 40 b1 d0 3c e1 b4 5b 3e 75 ef 8d be c9 b1 cb bd
       0.025475144 0.21455719 -0.27721754 -0.09946019
0001a0 0a 32 37 3e 69 35 b6 bd 57 2a 22 3e ed b2 ca bd
       0.17890182 -0.08896906 0.15836464 -0.09897409
0001b0 b8 c0 64 3e 2e a7 2d 3b fb 5a f4 bd f7 58 c9 bd
       0.22339141 0.0026497352 -0.11931416 -0.09831422
0001c0 b5 4c 12 be c6 32 60 3d c4 59 8e 3d 42 33 28 3e
       -0.14287074 0.05473592 0.06950715 0.16425803
0001d0 ab 76 b5 bc 47 ab 87 bb 4e 96 dc 3c e8 c1 0d be
       -0.022151312 -0.004140291 0.02692714 -0.138435
0001e0 3c c3 36 3e 6a 72 86 3c 91 26 8e 3c b1 97 2e 3d
       0.17847914 0.016411979 0.017352374 0.042625133
0001f0 87 1e 87 3e 47 fe 5e be a3 db 4d be b6 c1 14 3e
       0.26390478 -0.21776687 -0.20103316 0.1452702
000200 b5 90 86 3c cc 09 15 be bf 71 c7 bd 8b b9 ed 3d
       0.016426424 -0.14554518 -0.09738492 0.11607655
000210 3f cb 57 3e a5 ac 4c 3d 0f 4c 7c 3e 58 6d 81 bd
       0.21073626 0.049969334 0.24638389 -0.06319684
000220 bd 74 13 be 09 96 2f 3d 30 74 b8 bc e5 09 54 3e
       -0.14400001 0.042867694 -0.02251634 0.207069
000230 d0 1f 81 3e 53 48 db 3d b3 cd 9f bd 07 0f 8b be
       0.25219584 0.10707154 -0.07802906 -0.27159902
000240 03 fa 74 be ed a8 c7 3c 18 cd bf 3d 5b 21 1d be
       -0.23923497 0.024372542 0.093652904 -0.15344755
000250 53 5f ee 3d 1f 0f e6 bc 18 71 57 bd b4 4b b1 3d
       0.116392754 -0.028083382 -0.05259809 0.08657017
000260 98 39 44 be 5d 69 15 be c2 3d 2d be d6 27 3e 3e
       -0.19162595 -0.14590974 -0.1691809 0.18569884
000270 89 9a 78 3e ca 23 98 3b ec 8a b8 bd 3d 17 26 3d
       0.242777 0.0046429383 -0.09010872 0.040549506
000280 ef b5 af bd 1f 21 28 3e b2 b0 74 be e9 65 9f bd
       -0.08579623 0.16418885 -0.23895529 -0.0778311
000290 e2 f6 3d be 06 34 57 bd 8d 57 01 be 7f c6 3e be
       -0.1855121 -0.052539848 -0.12631054 -0.18630408
0002a0 6a ae 78 bd cf 0b 50 3e e7 62 f6 3d 92 cb fc bd
       -0.06071321 0.20317005 0.12030583 -0.123435155
0002b0 c5 3c 7a 3d a5 a3 e1 ba 2b c9 33 3e 4b 94 76 be
       0.06109311 -0.0017214908 0.17557208 -0.24080007
0002c0 db 53 72 3e a9 db 04 be c8 96 0e be 47 83 f9 3b
       0.23664801 -0.12974419 -0.13924706 0.0076145264
0002d0 48 c1 90 be 0c 71 88 3e 69 4d 10 be 1e 6f 7e 3e
       -0.28272462 0.26648748 -0.1409203 0.24847075
0002e0 29 5f 47 3e b2 a8 0b 3e 6e 59 42 3e 96 55 1d bc
       0.19469894 0.13638571 0.18979427 -0.009602925
0002f0 a4 2f 42 3d 20 eb cf bd 3a ce f2 3c 8c 40 95 3d
       0.047408715 -0.101522684 0.029639352 0.07287702
000300 a5 0f b1 3d 92 9b 20 3e 35 9c 84 be 9d 6c d1 3e
       0.08645562 0.15684345 -0.25900427 0.40903178
000310 2e 2a 20 be 97 76 61 bd 8a 91 20 3e 0d 78 a0 3e
       -0.1564109 -0.055044737 0.15680519 0.3134159
000320 0d 6f c8 bd 92 c7 b2 be 3c 1c 38 3e 82 a5 84 be
       -0.09786806 -0.34917885 0.1797952 -0.25907522
000330 94 6f 42 bd e2 bd 0e be 8a 9e 94 3e a1 d5 8a 3b
       -0.04746969 -0.13939622 0.29027206 0.0042368923
000340 95 0e c7 3e 19 35 70 3e 1b f3 77 3e 3f 2d 8b be
       0.38878313 0.23457755 0.24213831 -0.27182958
000350 1b ed e6 bd 82 e6 b3 3e a9 de be 3e 06 da bb 3d
       -0.11275693 0.351368 0.3727925 0.09172444
000360 2a 29 f3 bd 1c 67 93 3e 8c b7 a9 bd cd 4c 74 3e
       -0.11873086 0.28789604 -0.08286962 0.23857422
000370 c3 ac aa be 77 a0 ba be fa e9 19 be 81 a0 85 3e
       -0.33334932 -0.3645055 -0.15030661 0.26099017
000380 17 d4 e1 3d a5 dc 88 3e 6a c2 26 3d 51 93 8b 3d
       0.11026781 0.26730838 0.04071275 0.06815208
000390 63 5c 52 be 90 e9 f2 3c 21 c8 87 bc d8 68 87 be
       -0.20543055 0.029652387 -0.016574921 -0.26447177
0003a0 fc 1f 90 3e 68 de 26 3e 43 f3 c1 be e8 3a 89 3e
       0.28149402 0.16295779 -0.37880906 0.26802754
0003b0 46 ea 1f be d0 82 93 be 9b 0f 9d bd c5 57 a6 3e
       -0.15616712 -0.2881074 -0.07668992 0.32488838
0003c0 c8 f6 8f be 08 0b 9c be c1 9b da 3e 64 a7 68 3e
       -0.28117967 -0.30477166 0.42696956 0.22720104
0003d0 a0 4c b2 3e 08 d9 d0 3d 3d e0 b7 3e f5 37 ee bd
       0.34824085 0.101976454 0.35913268 -0.11631767
0003e0 34 a6 3c bc 92 5e b2 3d fe 9a b5 be 63 20 08 bd
       -0.011514235 0.08709444 -0.35469812 -0.03323401
0003f0 e1 cb 92 3e 50 a8 3b 3e 3a f3 91 3e 1b d4 06 3e
       0.28671172 0.18325925 0.2850588 0.1316685

sequential_6/dense_20/MatMul;sequential_6/dense_20/BiasAdd f4 [4]
000000 ac 6c 4b bf d5 8b c5 3c ed a7 72 bf ac 1d 12 40
       -0.79462695 0.024114529 -0.94787484 2.283061
