app/src/main/ml/patech (2).tflite (tflite, 19572 bytes, 5 tensors)

sequential/dense/BiasAdd/ReadVariableOp/resource f4 [64]
000000 6e e6 7c bb 13 9e 36 bc 00 00 00 00 52 e2 42 bb
       -0.0038589495 -0.011146086 0.0 -0.0029736948
000010 3d 6c d4 ba 00 00 00 00 f9 cc 01 bb 00 00 00 00
       -0.0016206574 0.0 -0.001980601 0.0
000020 6b 9c 8c b9 7f 5e b6 bb cb 7d cd bb 00 00 00 00
       -0.0002681942 -0.005565464 -0.006271099 0.0
000030 b4 13 97 3a 00 00 00 00 00 00 00 00 00 00 00 00
       0.0011526258 0.0 0.0 0.0
000040 cd 4a ca ba 00 00 00 00 00 00 00 00 b9 6b f4 3b
       -0.0015433669 0.0 0.0 0.0074591306
000050 00 a6 e6 3b 88 eb 93 b9 5c 04 65 3a 15 1c 3d bb
       0.0070388317 -0.0002821351 0.00087363063 -0.002885585
000060 80 51 92 bb f1 f0 a7 39 00 00 00 00 41 3b a2 ba
       -0.004465282 0.00032032238 0.0 -0.0012377278
000070 86 a1 07 bb 27 94 fb b9 b4 bd 81 bb bd 78 5a 38
       -0.002069564 -0.00047984833 -0.003959382 5.2087697e-05
000080 47 dc 2d bb b5 7f 7b b9 d5 5c f5 38 b5 cc a4 3b
       -0.0026529 -0.000239848 0.00011699802 0.005029286
000090 42 9d 4b 3c 00 00 00 00 00 00 00 00 00 00 00 00
       0.01242763 0.0 0.0 0.0
0000a0 58 37 4c ba 00 00 00 00 00 00 00 00 68 32 ea 3a
       -0.0007790229 0.0 0.0 0.0017867805
0000b0 00 00 00 00 00 00 00 00 13 03 db 3a c5 1c 43 bb
       0.0 0.0 0.001670929 -0.0029771787
0000c0 00 00 00 00 d8 e8 b0 3a 30 b2 31 3c 61 d7 85 ba
       0.0 0.0013497127 0.010845706 -0.0010211283
0000d0 00 00 00 00 22 49 81 bb 00 00 00 00 bd b8 4e bb
       0.0 -0.0039454857 0.0 -0.0031543218
0000e0 00 00 00 00 bb 51 df b9 00 00 00 00 00 00 00 00
       0.0 -0.00042594768 0.0 0.0
0000f0 ff ee 56 b9 61 6f 06 bc d9 55 7d ba 00 00 00 00
       -0.00020497663 -0.008205266 -0.00096639764 0.0

sequential/dense/MatMul f4 [64, 2]
000000 e0 3a 16 3e 82 9a d3 bd 6a b4 93 3e db a7 37 be
       0.14670897 -0.103322044 0.28848583 -0.17935126
000010 80 22 52 3b ad fa 72 be 4f c3 a2 be 14 95 42 3d
       0.003206402 -0.23728438 -0.31789634 0.047505453
000020 06 34 8d be 71 08 c1 bb d8 b8 cd 3d ce 99 59 be
       -0.27578753 -0.005890899 0.10045022 -0.21250078
000030 3e 10 6b 3d c5 ea 08 be 86 2b 32 be 3b 17 16 be
       0.057388537 -0.13370807 -0.17399415 -0.14657299
000040 0c a8 05 3e 1e b4 3d be 5d 02 a9 3e 30 0b 96 be
       0.13052386 -0.1852574 0.33009616 -0.2930541
000050 76 b1 3d 3e 2b 12 07 be 3a c4 f9 bd 84 e8 88 be
       0.18524727 -0.13190524 -0.1219563 -0.26739895
000060 c4 cb 7d 3e cc d0 89 be e4 ae 17 3e 13 f6 95 be
       0.24784762 -0.26917112 0.14812809 -0.29289302
000070 ab e1 11 be 0f eb 1f be 1f 0b 99 be d0 65 07 3d
       -0.14246242 -0.15617011 -0.29891297 0.03305608
000080 a1 d2 2d bd 66 c2 dd bb 77 5a 15 be 58 04 4b bd
       -0.0424372 -0.006767559 -0.14585291 -0.04956469
000090 30 46 30 be 26 90 af bd c8 ca 85 3c 8d 5a 54 3d
       -0.17214274 -0.08572416 0.016332045 0.05184417
0000a0 b3 d3 a3 be 5d 57 04 3e 0f 85 88 bd 77 86 f4 3b
       -0.3199745 0.12923951 -0.06666004 0.0074623185
0000b0 17 90 41 3d 4f 6a 83 bb 41 b8 4c 3e 5d cb 6b be
       0.047256555 -0.0040104757 0.19992162 -0.23026796
0000c0 57 fe ce bd c7 72 5d 3c 01 40 ed bd ad 39 f3 3c
       -0.10107105 0.013516135 -0.115844734 0.029690588
0000d0 68 61 48 3e 81 49 90 be 4e f4 5a bd 9b 12 4b 3d
       0.19568408 -0.2818108 -0.053455643 0.04957829
0000e0 b9 9a 52 3e 93 63 12 be ae 16 56 3d d1 06 98 bd
       0.20566835 -0.14295797 0.052267723 -0.07423175
0000f0 e6 00 ad 3d 5d b8 38 bc ca 72 7c be db ee 5e 3d
       0.08447437 -0.011274424 -0.24653164 0.05442701
000100 72 f7 e4 3c eb a5 21 bd 48 13 ce 3c 72 f1 1e 3c
       0.027950022 -0.039464872 0.025155678 0.00970112
000110 b8 50 cc 3d d0 29 c6 bb 99 e1 da bd 26 34 ac 3d
       0.099763334 -0.006047465 -0.106875606 0.08408384
000120 17 f6 80 be fe 88 10 3e 9a 80 2e be 8e 88 7b be
       -0.25187752 0.14114758 -0.17041245 -0.2456381
000130 48 79 b5 bd 64 5c 84 be 20 10 7f bd 52 ef 7e be
       -0.08861023 -0.25851738 -0.062271237 -0.24895981
000140 92 0c 15 be 5c 6f 99 3c 50 e6 00 bd c4 84 67 bd
       -0.14555576 0.018729858 -0.031469643 -0.0565231
000150 8a 1e a9 bd 32 73 0f be 60 82 b3 be 53 c0 96 3d
       -0.08257778 -0.14008787 -0.35060406 0.07360902
000160 69 48 1d be ed f2 86 be 60 56 25 3d 7c d2 6a be
       -0.15359654 -0.26357213 0.040365577 -0.22931856
000170 f4 58 83 be 5a ee 5f 3d 8f 25 63 3d fe 72 22 bd
       -0.25653803 0.05467067 0.05545574 -0.039660446
000180 d6 5d 01 be a6 92 c0 bd 9f 3a a2 be e5 29 a4 3d
       -0.12633452 -0.09402971 -0.3168535 0.08015803
000190 49 d7 43 be 9c 0e 2c 3e ba 69 e2 bd 03 21 da b9
       -0.19125094 0.16802448 -0.11055322 -0.00041604796
0001a0 fe ab 47 be e6 f2 82 be f0 d2 26 3e ad f4 6e be
       -0.19499204 -0.25575942 0.16291404 -0.23335524
0001b0 76 fb 6e be ad 5d 21 be 91 d7 aa 3d ec a5 c7 bd
       -0.23338112 -0.1575839 0.08341897 -0.09748444
0001c0 60 36 3a be 4e 3a 8e be a6 7d 68 be 98 0d 09 3d
       -0.18184805 -0.27778858 -0.22704181 0.03346023
0001d0 d5 20 97 be 90 e0 be bc 42 de f1 bd 40 d4 a3 bc
       -0.29517236 -0.02330044 -0.118099704 -0.01999867
0001e0 c1 29 8e be 95 da f7 3c d5 66 27 3e de 26 24 be
       -0.2776623 0.030255595 0.16347821 -0.16030452
0001f0 e6 aa ce bd b4 7a b6 3c 38 4a 5d 3d 0b d3 23 be
       -0.1009119 0.022275306 0.05402586 -0.15998475

sequential/dense_1/MatMul f4 [64, 64]
000000 01 2d 91 3b f3 16 8d bd 90 78 ce 3c 9a 42 50 bd
       0.0044304137 -0.06889143 0.025203973 -0.050844766
000010 6a 1b ba 3c 56 a4 dd 3d fc fc b7 3b 21 19 19 be
       0.02271815 0.1082236 0.005614875 -0.14950992
000020 72 8c d4 bb 16 bf ae bc 60 a2 91 bd 24 a6 42 3d
       -0.006486469 -0.021331351 -0.07111049 0.047521725
000030 f2 3d f5 bd c6 21 2d be 9d be 00 3e f6 71 0e be
       -0.11974706 -0.16907415 0.12572713 -0.1391066
000040 80 ec 0d 3e 08 42 28 be 25 58 c7 bd 75 e4 84 3d
       0.13859749 -0.16431439 -0.09733609 0.06488887
000050 13 ee 05 3e f1 b0 51 be 82 b8 37 be 31 9d 05 3e
       0.130791 -0.20477654 -0.17941478 0.13048245
000060 83 2a df bd 68 08 dc bd 54 03 1a 3d a8 b5 55 3e
       -0.1089678 -0.10743791 0.03760083 0.20870078
000070 85 63 0e be 5c d7 b5 3b f3 27 0d 3d 0f c9 61 be
       -0.13905151 0.0055493545 0.034461927 -0.22049354
000080 52 05 56 bd 25 d1 41 3e 4a 99 1d be 48 15 f3 bc
       -0.052251168 0.18927439 -0.15390506 -0.029673234
000090 16 a8 08 bd 20 31 a1 bc 0d 2c 58 3e 32 1f 05 be
       -0.033363424 -0.019676745 0.21110554 -0.13000181
0000a0 67 5d 43 3e 40 08 76 3b 6a 8b a2 bd 7a 4d 30 be
       0.19078599 0.0037541538 -0.07936747 -0.17217055
0000b0 9e 75 ee bd 85 a3 00 3e 12 1e c3 3c 91 3e 6a 3b
       -0.116435274 0.12562378 0.02381805 0.003574286
0000c0 cc 98 1f 3d a9 b7 4f bd 36 f5 4f be 72 a5 93 bd
       0.038964078 -0.05071226 -0.20308384 -0.072092906
0000d0 c9 02 23 be 36 6f c9 bd 57 7a 26 be ca 0e d7 3d
       -0.15919031 -0.09835665 -0.16257606 0.10500868
0000e0 90 55 de bc d8 ab d3 bd 2f 7f f6 bd 60 56 4e bc
       -0.027140409 -0.10335511 -0.12035977 -0.012593836
0000f0 b4 35 4c be ba 6f 3b be 33 d7 f9 3d c0 74 99 bd
       -0.19942361 -0.18304339 0.12199249 -0.074929714
000100 f2 42 d7 bc 2b 1e 64 3d f6 fd 9c 3d 2f 46 12 3e
       -0.02627704 0.055692833 0.07665627 0.14284585
000110 9a 5b 49 be 85 52 1c be 31 98 47 be 58 44 a2 bd
       -0.1966385 -0.15265854 -0.1949165 -0.07923192
000120 f2 2d 08 3d fd 74 6d 3d 45 cd 03 3d d3 61 0c 3e
       0.033246942 0.057972897 0.032178182 0.13709192
000130 ff 35 28 bd 06 ab 2a be fc 2e 17 be ad 01 32 3e
       -0.04106712 -0.16666803 -0.14764017 0.17383452
000140 00 f9 b7 bd 59 9d 3e 3e 26 4b 99 3d 85 1f d4 3c
       -0.0898304 0.18614711 0.074850366 0.025893936
000150 a2 98 50 be 2b 52 5d be 4f c7 3f be 76 65 70 3d
       -0.20370725 -0.21613376 -0.18728374 0.05869051
000160 f7 c3 d4 bd 5b 05 71 3d 7e 56 aa bd 5a 54 31 3e
       -0.1038894 0.058842998 -0.08317278 0.17317334
000170 70 74 bb bd 22 fd 0e 3e 5f 61 56 3e 5e 30 a1 bd
       -0.09153068 0.1396375 0.20935582 -0.078705534
000180 3a 14 f6 bd fd b7 db 3d 53 9c d2 3d 6a d6 51 be
       -0.12015577 0.10728452 0.10283723 -0.20491949
000190 ea f1 0e 3d 05 ae 39 3e a8 30 2d bd 3f d5 3d be
       0.034898676 0.1813279 -0.04228273 -0.18538378
0001a0 3d e1 9e bc 3f 2a 20 3e 90 4a 0f be b7 0f e7 3d
       -0.019394511 0.15641116 -0.13993287 0.11282294
0001b0 0c 37 58 3d 6d 8d 5b 3e 3f a0 23 bd 06 47 1d 3d
       0.05278687 0.21440668 -0.039947744 0.03839781
0001c0 22 fa f6 3d 29 c2 58 be 8f 34 0d be c5 e6 a3 3d
       0.12059428 -0.21167816 -0.13789581 0.08003
0001d0 c4 a6 39 3d 89 42 53 3e 95 8f 59 be bf b0 92 bd
       0.045325056 0.2063085 -0.21246178 -0.07162618
0001e0 98 28 1c bd 6a 8f 18 bd ed 56 4f be 60 3b 05 bd
       -0.03812465 -0.037246145 -0.20248003 -0.032527328
0001f0 ed 79 26 be e1 87 18 be 61 a0 1b 3c 87 8c 4d be
       -0.16257448 -0.14895584 0.0094986865 -0.20073138
000200 e3 43 10 3e 0a 1f 06 be 54 52 16 3d 4e 11 92 bd
       0.14088397 -0.13097778 0.036699608 -0.07132207
000210 73 9b 31 3e 1a 57 9f 3d ab a0 40 be c1 a9 04 3e
       0.17344455 0.07780285 -0.1881129 0.12955381
000220 5f dc 1a 3e c2 ef 00 3e b0 09 b9 bd 8a 1e 04 be
       0.15123127 0.1259146 -0.09035051 -0.12902275
000230 59 19 3b be 70 88 cf bd 13 d7 29 3e fc df b2 bd
       -0.18271388 -0.10133445 0.1658595 -0.08734128
000240 c6 73 96 3c ad fb 4d be 64 a9 ca bd 34 ed 84 bd
       0.018365752 -0.20115538 -0.0989559 -0.064905554
000250 83 75 9c bd 78 2f 15 3e 3c e6 3e 3d 6a 65 06 3e
       -0.07639601 0.14568889 0.046606287 0.13124624
000260 96 39 40 3e d1 ae 03 be 48 83 11 be f9 f7 d3 bd
       0.18771967 -0.12859656 -0.14210236 -0.103500314
000270 62 2e c3 bc 10 55 0f 3e 8f 1c 38 3d 6f 80 86 bd
       -0.023825828 0.13997293 0.04494911 -0.065674655
000280 97 e3 4c 3e 22 58 f5 bd af 48 da 3c 9c 11 43 bd
       0.20008694 -0.119797006 0.026645986 -0.047624215
000290 77 ab 5e be e0 ad e1 3b 4a fc a3 3d 30 a6 f9 bc
       -0.21745096 0.0068871826 0.08007105 -0.030474752
0002a0 1b 22 c3 bd 51 d7 3b 3e 20 55 ab 3b a9 c9 00 3e
       -0.095279895 0.18343855 0.0052286536 0.12576927
0002b0 00 0f 09 3c 00 34 9e bd cb c8 fa 3c f0 8f 26 3e
       0.008365393 -0.07724762 0.030613324 0.16265845
0002c0 a1 3b 32 be 19 10 51 be 5e f0 42 3e fa 1b 2d be
       -0.17405559 -0.20416297 0.19037005 -0.16905203
0002d0 74 56 22 bd cd 9b 5c be f1 3b 2d be b5 4c 53 3e
       -0.03963323 -0.21543808 -0.16917397 0.2063473
0002e0 69 1b c4 bd 61 6b 1c 3e ea df 43 be 8a 5f a2 bd
       -0.095755406 0.15275337 -0.19128385 -0.07928379
0002f0 7e d2 6b 3c f1 e8 e5 bc fd 59 d1 3d 8a 33 b8 3d
       0.014393447 -0.028065177 0.10222242 0.08994205
000300 5b 90 95 bc b8 fe 41 be 3e 0b b8 3d d6 bc 17 be
       -0.01825731 -0.18944824 0.08986519 -0.14818129
000310 24 98 39 be 4f 04 24 be cc f5 13 3e 6a 68 b2 3d
       -0.18124443 -0.16017269 0.14449233 0.08711322
000320 d6 0c 17 be 58 23 29 3e e7 46 39 3d 7e 10 35 be
       -0.1475099 0.16517389 0.045233633 -0.17682073
000330 61 1c 5a be 03 b1 5d 3e 77 51 31 be 76 a8 e5 bd
       -0.21299888 0.21649556 -0.17316233 -0.11213772
000340 a7 bb cc 3d 8d 36 48 3e d2 d8 97 3d 4f 2a b3 bc
       0.09996729 0.1955206 0.07414402 -0.02187076
000350 1a 18 8b bd d9 82 2b 3e c5 85 db bb f2 a5 34 be
       -0.067917064 0.16749133 -0.006699296 -0.17641428
000360 a4 ad 0d be 6c 4d dd 3c 2a 6a c7 3d 95 19 4b 3e
       -0.1383577 0.027014457 0.09737046 0.19833978
000370 22 ad a4 3c bf 81 41 3e d7 06 58 be d4 46 30 3e
       0.020102087 0.1889715 -0.21096359 0.17214519
000380 c7 bd 92 bd 7b 98 be 3d d1 fc b2 bd a9 b0 9e 3c
       -0.071651034 0.09306427 -0.08739627 0.019371348
000390 06 58 13 3e 5e 1e 9d 3d 90 ba 3b be 79 f2 25 3e
       0.14389047 0.07671808 -0.18332887 0.16205777
0003a0 a5 f6 3b bd 3c b2 16 bd b0 ae 14 3c bb 56 99 bd
       -0.045889515 -0.03679107 0.009074852 -0.07487246
0003b0 4d 58 08 be 76 38 92 3d 99 32 9e 3d e4 3e 14 bd
       -0.13314934 0.07139675 0.077244945 -0.03619279
0003c0 f4 6a 3e 3d d0 22 96 3d fd f8 0f 3d 1a 53 11 3e
       0.046488717 0.07330859 0.035149563 0.14191857
0003d0 90 65 0c bc 61 61 56 be 85 e9 3e 3e 42 f8 51 3e
       -0.008569136 -0.20935585 0.18643768 0.20504859
0003e0 e0 c6 2b be f6 41 06 3e 0c 2c 07 3d c9 20 28 3e
       -0.16775084 0.131111 0.03300099 0.16418757
0003f0 c5 df 48 bb 71 e5 01 be 32 08 52 3e 4e 38 c5 3d
       -0.0030650955 -0.12685181 0.20510939 0.0962988

sequential/dense_2/MatMul f4 [3, 64]
000000 84 d5 2d be 1a 7a 83 3e 63 62 7b 3e d9 63 87 bd
       -0.16975981 0.25679094 0.2454925 -0.06610841
000010 e5 9e 29 be e8 2a 1c be 46 92 c6 3d ea b3 d9 3d
       -0.1656452 -0.15250742 0.09695868 0.10630019
000020 56 96 22 3e 1c 18 8c 3e 50 07 86 3e 99 a2 19 3e
       0.15877661 0.27362144 0.26177454 0.15003432
000030 56 e7 61 be 6a 74 4a bd 70 66 3e be 4a 5c 0e 3e
       -0.22060904 -0.049427427 -0.18593764 0.13902393
000040 00 71 80 3d 60 15 69 3e 73 75 9b 3e 37 d9 0c be
       0.06271553 0.2276206 0.30363044 -0.13754736
000050 a3 23 88 3e ff 04 98 3e 00 50 10 bd a7 7c e0 3d
       0.2658969 0.29691312 -0.035232544 0.109612755
000060 12 90 0d 3e d0 d0 0e 3e 4f 92 65 be 12 19 e0 bd
       0.1382449 0.13946843 -0.22419094 -0.10942282
000070 57 d0 78 be b0 0c 57 bd c2 82 c1 bb f5 b3 f3 3d
       -0.24298225 -0.052502334 -0.00590548 0.118995585
000080 95 33 56 be 00 f9 00 be a0 5f 4f 3e c1 72 19 3e
       -0.20918114 -0.12594986 0.20251322 0.14985181
000090 76 cd 82 bd 49 22 a1 3d 48 ff 37 3e 62 f9 31 bd
       -0.06386845 0.078678675 0.17968476 -0.04345072
0000a0 34 e1 db 3d 59 37 8b be 0f 22 8a be 22 df 1f bc
       0.107363135 -0.27190664 -0.2697911 -0.009757789
0000b0 dc c7 46 3e 88 64 77 bc f9 33 4e 3e 53 82 1d bd
       0.19412178 -0.015099652 0.20137013 -0.038454365
0000c0 60 b9 c5 bd f4 84 90 bd 05 2f ee bd 28 3d f3 bd
       -0.09654498 -0.07056609 -0.11630062 -0.11876899
0000d0 82 79 7c 3e da 8c 1f 3e ba 2a 2b 3d 66 70 a4 be
       0.24655727 0.15581074 0.041788794 -0.32117003
0000e0 1b 76 9b bd 8d be 53 3c 9f a7 03 be ee f4 0f 3d
       -0.07590886 0.012923849 -0.12856911 0.035145693
0000f0 94 2d 1e 3e f6 c5 3e be a4 2d a1 be 02 57 d7 3b
       0.15447074 -0.18630204 -0.31480134 0.0065716514
000100 ea 42 d6 bd 4d 2c f8 3d 69 ce d0 bc 48 ec 96 bc
       -0.104619816 0.12117825 -0.025489049 -0.018423215
000110 ba 0a 14 be 8a df 1f be 1a 1f 06 3e e1 21 9e bd
       -0.14457217 -0.15612617 0.13097802 -0.07721306
000120 18 8b 40 3e af 76 7a bd 6d bc a3 bd 38 b0 73 be
       0.1880306 -0.06114834 -0.07994924 -0.23797691
000130 22 cf 95 be cb 5d d2 3c ff c0 53 3e dc eb b0 3c
       -0.29259592 0.02567949 0.20679091 0.021596842
000140 c4 8a 7c be 14 b2 eb bd b4 3c 35 3e 33 5e 6f bc
       -0.2466231 -0.11508575 0.17698938 -0.014609861
000150 17 ed bd bd e4 70 2e bd c5 37 3c be 0b 94 15 bd
       -0.09273737 -0.04258813 -0.1838065 -0.036518138
000160 78 f4 9b 3d 3e bd 73 be da 51 9a bd 01 ba 04 3e
       0.07614988 -0.23802659 -0.07535143 0.1296158
000170 0a 21 42 be 82 0a 1c be dd 67 80 3e 8d 11 32 be
       -0.18957916 -0.15238383 0.2507924 -0.17389508
000180 88 29 24 be a0 d3 0a 3e e6 4f 41 be 2d 36 6f 3e
       -0.16031468 0.13557291 -0.18878135 0.2336051
000190 35 86 86 be 89 0f 06 3e 32 b5 f5 bd b2 aa 4d 3e
       -0.26274267 0.13091864 -0.11997451 0.20084646
0001a0 83 ac 1b 3e e3 5f 23 3e 39 5a d0 3d a7 b9 21 be
       0.15202527 0.15954547 0.101734586 -0.15793477
0001b0 7e 48 99 bd 91 66 8d 3e f7 3e f4 3d f6 19 74 3e
       -0.0748453 0.27617314 0.11926072 0.23838028
0001c0 b6 66 92 3e 9f 08 84 bd 55 d2 3b be 09 d3 cb 3d
       0.28593987 -0.06446957 -0.18341954 0.09952361
0001d0 a9 e7 29 3e f6 5f c2 3d bf 6d 53 be ff 7f 43 be
       0.16592278 0.09490959 -0.20647334 -0.19091795
0001e0 6f 62 c7 3d 46 ab 5c 3e 4b a2 b7 3c ad 3f 28 be
       0.097355716 0.2154971 0.022416255 -0.1643054
0001f0 6e 8b 27 be ad 82 4c 3e 37 cd c1 bd 03 21 f3 3d
       -0.16361782 0.19971724 -0.0946297 0.11871531
000200 c3 8b 63 3d 36 8b ef 3d 96 90 88 be 32 f9 2d be
       0.05555321 0.11696474 -0.2667281 -0.16989592
000210 8e fd 3d be 18 41 25 bd d6 f9 fb 3d 72 91 72 3d
       -0.18553755 -0.04034528 0.12303512 0.05922074
000220 f9 95 10 be ff b0 90 bc d5 3a 59 3e bb 86 6f be
       -0.1411971 -0.017662523 0.21213849 -0.2339124
000230 49 9b 85 be 2c fd ee bd 89 c0 1a 3d c3 60 41 3d
       -0.26095036 -0.116693825 0.037781272 0.04721142
000240 9c 5f 3f 3e 2b 28 6b be ad cf 09 3e 73 43 42 be
       0.18688816 -0.22964542 0.13458128 -0.18971042
000250 2e ec 4a 3d ab eb 1b bc 78 e0 52 be 1f 42 52 be
       0.049541645 -0.009516637 -0.2059344 -0.20533036
000260 ea 18 65 bd 2b 57 38 be ef c7 6c 3e 5b 6d 1f 3e
       -0.055931963 -0.18002002 0.23123144 0.1556906
000270 80 97 55 bb fc a1 3b 3e 69 41 68 3c 05 84 05 3e
       -0.0032591522 0.18323511 0.014175751 0.13038643
000280 55 ef 42 bd 2d 25 2c 3e 3f eb 42 be 5a 87 11 3e
       -0.047591526 0.16811056 -0.19035052 0.14211789
000290 d2 0f a1 3c aa 21 68 bd a4 43 00 bd 67 de 56 b9
       0.019660864 -0.05667273 -0.031314507 -0.00020491482
0002a0 fd 62 50 3d 89 79 53 3d 48 8c 5d 3d df 05 2f 3e
       0.050875653 0.051629577 0.05408886 0.17092083
0002b0 97 63 29 3d 1f 30 17 3e 44 c4 60 3e 21 f7 8f 3d
       0.041354742 0.1476445 0.2194987 0.07029558
0002c0 02 50 15 3e c9 18 86 3d 9d 12 29 3d 78 10 bb 3d
       0.14581302 0.06547696 0.041277517 0.091340005
0002d0 c9 a6 50 3e 87 51 44 be aa 9a 8d 3d 12 0a 3c be
       0.20376123 -0.19171725 0.069142655 -0.18363217
0002e0 20 97 91 bd 94 89 3d bd 68 46 05 3d ac 85 59 bd
       -0.07108903 -0.046273783 0.032537848 -0.053105995
0002f0 f2 26 43 bd b6 de 51 3e d8 be 54 ba c1 d2 fa 3d
       -0.047644563 0.20495114 -0.0008115596 0.12247229

sequential/dense_2/MatMul;sequential/dense_2/BiasAdd f4 [3]
000000 0b f0 50 be bf 29 b2 3e 8b fd ad bd
       -0.20404069 0.34797475 -0.08495625
